ml-service/ckd_model.pt (torch, 3949 bytes, 5 tensors)

net.0.weight f4 [16, 4]
000000 ae 94 4b 3e 47 21 ed 3e b1 ba 6c 3e d0 02 19 3f
       0.19880936 0.4631445 0.23118092 0.59769917
000010 53 aa f0 be c3 c1 e8 be 84 c6 33 3e e7 da 0a bd
       -0.47004947 -0.45460328 0.17556196 -0.033900168
000020 fd 68 c2 3d bf 1d 4c bd a5 8c ff 3d dc ab 9b be
       0.09492681 -0.049833056 0.12477998 -0.30404556
000030 dd e8 d7 bd 78 14 cb 3d 79 11 05 3d 21 f7 8c be
       -0.10542462 0.099160135 0.032487366 -0.27532294
000040 c2 b4 97 3e f6 5a 52 be eb 20 e6 3e 48 20 1a bf
       0.29630095 -0.20542511 0.4494699 -0.6020551
000050 16 47 db be 7e b3 ad 3e 59 b7 16 3d 0d 0b 0d be
       -0.42827672 0.33926004 0.036795948 -0.13773747
000060 b8 50 a3 3d da 73 e4 be 9a f5 71 3e 81 4e cd be
       0.0797438 -0.44619638 0.23628846 -0.40098956
000070 f4 17 1f be ce 9d ee be 81 be 62 3e 1f 08 bd bd
       -0.15536481 -0.4660477 0.22142984 -0.092300646
000080 b7 50 a6 bd 5e 9a ec be 80 57 d4 bc 17 6b ea 3e
       -0.08120864 -0.46211523 -0.02592063 0.45784828
000090 03 65 8b be 93 bd 58 be 9c c8 b9 3e 03 ba a8 3d
       -0.27225503 -0.21166067 0.36285865 0.08238604
0000a0 2d 72 90 be f8 ef 61 3e 67 b9 f4 bc 9d 12 c3 be
       -0.2821211 0.22064197 -0.029873563 -0.38100138
0000b0 e2 2d 7f be 1f f0 b3 be bd eb 39 be a0 a4 ac 3e
       -0.24919847 -0.35144135 -0.18156333 0.3371935
0000c0 f4 9c b1 3e ba b4 ab be 32 f9 c3 3e ac 8a 22 3e
       0.34690058 -0.3353632 0.38276058 0.15873212
0000d0 a1 f2 80 3e 7a 73 6a 3e 37 93 80 3d 75 d1 9a 3e
       0.2518511 0.22895613 0.06278079 0.30237928
0000e0 65 6d 69 be 6a 58 a9 3e 08 9a a4 3e ce a1 91 3e
       -0.22795637 0.33075267 0.32148767 0.2844376
0000f0 77 55 33 3d b4 12 08 be 0f 49 f8 bc 6b 08 bf 3e
       0.043782678 -0.13288385 -0.030308275 0.3731111

net.0.bias f4 [16]
000000 7d 4f 87 bd 89 cc 0a be d2 f2 78 3d 09 f1 4c be
       -0.06606958 -0.13554586 0.060778446 -0.20013823
000010 77 c1 c6 3d 6f e6 83 bd f3 db 11 3d 0c 4e 8f 3d
       0.09704869 -0.06440436 0.03561015 0.06997308
000020 0c ee a3 be be 86 c2 3d d0 63 e5 38 ae b5 77 bd
       -0.32017553 0.09498356 0.000109381624 -0.060475998
000030 d9 a5 ae be 60 27 82 bd 32 0e d2 be f3 c7 d1 3d
       -0.34110907 -0.063551664 -0.41026455 0.102432154

net.2.weight f4 [8, 16]
000000 69 95 86 3e 57 24 60 bd c8 21 e3 bd 96 d5 a4 3c
       0.26285866 -0.054722156 -0.11090428 0.020121377
000010 01 eb 9d 3c 47 82 02 be 19 6d 0b be bb 43 28 be
       0.019277098 -0.1274501 -0.13615836 -0.16432087
000020 71 92 d4 3d d6 7e e3 3d 0e 4b b9 3d 5b e4 a6 3e
       0.10379494 0.111081764 0.09047519 0.32596096
000030 8f 1f 56 3e 47 eb 05 3e c7 c1 0f bd 54 80 3a bd
       0.20910476 0.13078032 -0.03509691 -0.04553254
000040 d6 48 7b be 26 06 bb 3e b6 e0 7e 3e cb 7f 20 bd
       -0.24539503 0.36528128 0.24890408 -0.039184373
000050 36 af a1 3e e2 d1 0c bc f0 32 d3 bd 7c 43 98 3e
       0.31578988 -0.008594962 -0.1031245 0.29738986
000060 38 1a c8 3d ae 17 6f 3e 35 df 15 3e 62 51 59 be
       0.09770626 0.23348877 0.14635928 -0.21222451
000070 26 c3 36 3b af 02 54 be fc 36 66 3e 6a 88 b5 3d
       0.0027887314 -0.20704149 0.22481912 0.088639095
000080 4c ae 64 3e 6c 17 f0 bd 6d a9 b2 be eb 7c d1 3d
       0.22332114 -0.11723217 -0.34894887 0.10228904
000090 da 69 b0 3d b2 9e 0d 3d 56 e6 66 bc 7c fc 17 be
       0.086139396 0.03457517 -0.014093002 -0.14842409
0000a0 fe e5 aa 3d f5 e2 34 be 48 ea 01 be 28 1c ac 3e
       0.08344649 -0.17664702 -0.12687027 0.33615232
0000b0 ca 45 5d be c2 24 1b 3e af 2a b6 3d e7 c4 7e 3e
       -0.21608654 0.1515074 0.0889486 0.248798
0000c0 b6 18 9d bd b5 e8 5c 3d 72 21 c5 3b d5 47 eb 3d
       -0.07670729 0.053932864 0.00601595 0.1148831
0000d0 28 14 95 3e de 84 8d 3e 87 55 48 bc 52 9a 47 bd
       0.2911694 0.27640432 -0.012227423 -0.048731156
0000e0 ca b1 41 be 46 ff 98 bd 2f db a5 3c 74 68 ce bd
       -0.18915477 -0.074705645 0.020246116 -0.100785166
0000f0 6e 00 d1 bc 6f 32 68 be ad 32 76 bd 7c 55 61 be
       -0.0255129 -0.22675489 -0.060106922 -0.22005266
000100 d3 2e 06 be 47 2d ab 3d 49 5c bc 3d 64 bb 9f 3e
       -0.131038 0.08358245 0.091972895 0.31197655
000110 9e e0 2a 3d d8 ca de bc a8 76 78 3e 0f 87 e9 bd
       0.041718118 -0.027196333 0.24264014 -0.114027135
000120 cb 52 9f 3d 57 ea 17 3e ce 5b aa bd da 32 57 bd
       0.077794634 0.14835487 -0.083182916 -0.05253873
000130 29 78 5f 3e 31 2e 5d bd 23 bb 45 3e 47 3a 7f be
       0.21823181 -0.05399913 0.19309668 -0.24924575
000140 55 9f 42 bd 1e b3 0f 3d 7a 8c 1f 3e a0 ca 71 3e
       -0.047515232 0.03508293 0.15580931 0.23612452
000150 84 06 cf 3b c4 e1 83 3d 9b f0 b6 3e 22 b9 6e bc
       0.0063179154 0.06439546 0.35730442 -0.014570506
000160 39 29 04 3e d0 e1 a7 3e d0 56 46 3e f2 8f b9 be
       0.1290635 0.3278947 0.19369054 -0.36242634
000170 b6 49 a2 3e b0 0b d8 bd b0 f8 39 be 28 1b 4f be
       0.31696862 -0.10549104 -0.18161273 -0.20225203
000180 cc 13 ed 3d 0b ee 9a 3d c3 da 19 be 9c 6c 61 3c
       0.115760416 0.07564934 -0.15024857 0.013758805
000190 49 a7 1c bd 60 a3 c2 3c c8 c4 d7 bd d0 ea 80 3d
       -0.038245473 0.023759544 -0.1053558 0.06294787
0001a0 96 a3 b5 3e fc 5c a9 3d e8 93 61 3d 9a 3e 73 3d
       0.3547637 0.082696885 0.055072695 0.059385873
0001b0 25 51 96 3e bb 74 b1 3e bd 3a 6a 3d 8b 8a 44 3d
       0.29358783 0.3465937 0.057184923 0.047983687
0001c0 b6 f4 f5 3d 18 3e de 3d f0 e8 90 3e 1d f3 12 bc
       0.120095655 0.10851687 0.28302717 -0.008969096
0001d0 13 89 6b 3e eb 74 8e 3d 51 54 9c 3e ed b7 8f 3d
       0.23001508 0.06955894 0.30533078 0.07017503
0001e0 35 bc 9d be 2f ab 85 3e 48 fc 1f 3e 23 6c f5 3d
       -0.30807653 0.26107165 0.15623581 0.11983516
0001f0 c3 4e 08 be 03 76 ac bd 41 55 94 be e9 ba 85 bd
       -0.13311295 -0.084209464 -0.28971294 -0.06529791

net.2.bias f4 [8]
000000 03 99 fc 3d 21 f4 46 3e fd e0 97 3e a6 15 9c 3d
       0.12333872 0.19429065 0.2966384 0.076213166
000010 f4 84 0d 3e 0c ae 3b 3e fe 48 bf bd 77 3d ab bd
       0.13820249 0.18328112 -0.09340094 -0.08361333

net.4.weight f4 [1, 8]
000000 63 7f e5 3d 89 11 b0 be 42 77 dc 3e dc 14 47 be
       0.11205938 -0.34388378 0.43059736 -0.19441551
000010 d7 2a 09 be c2 39 00 be a9 fa 4f 3e 54 bb e6 be
       -0.13395248 -0.12522033 0.20310463 -0.45064795
