backend/predictor/ckd_model.pt (torch, 3949 bytes, 5 tensors)

net.0.weight f4 [16, 4]
-0.42773503 0.3394793 0.31494674 -0.34327573 0.30002454 -0.0067418152 0.17579885 -0.39014223
0.60043085 0.4374513 -0.34703356 0.11067242 0.19865516 -0.46097654 0.39074746 -0.5740663
-0.011904023 0.47134173 -0.16005775 0.28300825 -0.15779254 -0.19090812 0.48549598 0.20821063
0.5228827 0.11814499 0.44090348 0.54405123 0.47369394 -0.20322646 -0.37079966 -0.02010585
-0.52527124 -0.10038058 0.3848396 0.3855273 0.29387698 0.5841619 -0.40849435 -0.1689264
-0.036597375 -0.20649086 -0.21273988 0.016440498 -0.54547536 -0.44170383 -0.3357622 -0.37953335
-0.09427579 -0.27018702 -0.08904188 0.5276171 0.47384706 0.38692945 -0.44016382 0.10902589
0.18800694 0.11701833 -0.55417794 0.00822792 -0.12696284 0.4113562 -0.22893266 0.450476
00000000: 1600 dbbe 3bd0 ad3e b340 a13e d6c1 afbe
00000010: d19c 993e 72ea dcbb 9d04 343e b9c0 c7be
00000020: d6b5 193f 9ef9 df3e 62ae b1be 39a8 e23d
00000030: 426c 4b3e 1e05 ecbe 0d10 c83e 02f6 12bf
00000040: 1709 43bc b453 f13e 2ee6 23be 75e6 903e
00000050: 5e94 21be 6b7d 43be ee92 f83e 2b35 553e
00000060: a4db 053f 00f6 f13d 1abe e13e f146 0b3f
00000070: 0388 f23e 991a 50be 74d9 bdbe 06b5 a4bc
00000080: 2d78 06bf 5594 cdbd b209 c53e d663 c53e
00000090: 0b77 963e a28b 153f 2c26 d1be 0bfb 2cbe
000000a0: 21e7 15bd 5772 53be 7cd8 59be 39ae 863c
000000b0: 46a4 0bbf 0127 e2be 06e9 abbe 3252 c2be
000000c0: aa13 c1bd f455 8abe 975b b6bd ea11 073f
000000d0: 159c f23e 9e1b c63e 275d e1be f748 df3d
000000e0: e484 403e 4ea7 ef3d 9bde 0dbf 66ce 063c
000000f0: 8c02 02be 489d d23e 536d 6abe caa4 e63e

net.0.bias f4 [16]
0.2869311 0.5656586 0.54115313 0.4362147 -0.14990936 0.44108424 0.34528643 -0.062653966
-0.16885735 -0.03482455 -0.1816028 -0.2655375 0.42341647 0.29828888 0.37007335 0.34672722
00000000: a2e8 923e 01cf 103f 0389 0a3f 8857 df3e
00000010: d781 19be cbd5 e13e 62c9 b03e b950 80bd
00000020: f1e8 2cbe 30a4 0ebd 16f6 39be 88f4 87be
00000030: 0bca d83e 52b9 983e 417a bd3e 3b86 b13e

net.2.weight f4 [8, 16]
0.3318786 0.34336534 -0.09577777 0.21848418 0.007022148 0.15627295 0.18252459 -0.108516656
0.20738868 0.08405531 -0.022958236 0.24519697 -0.22695313 0.0011337867 -0.2487795 -0.28030682
0.057354737 0.2364964 0.23133253 -0.1941867 0.01588627 -0.040700912 0.22195396 0.11867164
0.1761465 0.058261722 0.009519346 -0.084411606 0.0033892714 0.15349782 -0.075519636 -0.049271714
-0.10739612 0.058596652 0.12953834 -0.025226898 0.27295843 -0.28147864 -0.035619833 0.18606947
0.20292374 0.27490434 0.0145689435 -0.09231102 0.05672967 0.2616873 0.21086054 0.18150456
0.124424376 -0.13147514 0.3140797 -0.16018103 0.35330045 -0.014546871 0.24918145 0.117679924
0.055462223 0.15027753 -0.06513413 0.06819537 0.33431616 0.1745958 0.099280566 -0.059928335
-0.11112 0.2723529 -0.22483355 0.09729611 -0.044251516 0.3416622 0.00083098776 -0.11866098
-0.03721401 -0.03083205 0.060611386 0.0015638396 -0.1544959 0.079699695 -0.1347736 -0.29408923
-0.24805994 -0.2185502 -0.08640014 -0.13233043 -0.16041595 -0.27392486 -0.26562518 -0.13147566
-0.18775465 0.033528265 -0.204738 0.16846529 -0.013304101 -0.037939113 -0.26057968 0.063073695
0.16783826 0.16344386 0.14931622 0.116880566 0.028979005 0.33013377 -0.20048119 -0.24030983
0.074874185 -0.17906238 -0.15115808 0.08798331 -0.14008859 0.14635697 -0.13895485 -0.07945457
0.1191874 -0.08497572 0.078477025 0.37755266 -0.3699155 0.15951999 0.16678853 -0.0266457
-0.006981885 -0.22395489 -0.15226132 0.004386027 -0.038948435 0.09274349 -0.20849133 -0.32457128
00000000: feeb a93e 95cd af3e 2327 c4bd 51ba 5f3e
00000010: 0c1a e63b 0406 203e bae7 3a3e fb3d debd
00000020: b35d 543e 3125 ac3d e912 bcbc ea14 7b3e
00000030: 6766 68be 929b 943a 0ec0 7ebe 6084 8fbe
00000040: cdec 6a3d 1d2c 723e 6fe2 6c3e e1d8 46be
00000050: ec23 823c 00b6 26bd e647 633e 1e0a f33d
00000060: c05f 343e d8a3 6e3d 08f7 1b3c fedf acbd
00000070: 8a1e 5e3b 882e 1d3e 0aaa 9abd 23d1 49bd
00000080: 7ff2 dbbd 0b03 703d b3a5 043e a4a8 cebc
00000090: 35c1 8b3e f81d 90be 1ae6 11bd ff88 3e3e
000000a0: 3ecb 4f3e 43c0 8c3e 94b2 6e3c 8f0d bdbd
000000b0: 5f5d 683d e1fb 853e d3eb 573e 55dc 393e
000000c0: 35d2 fe3d 6ba1 06be 0ecf a03e 7f06 24be
000000d0: cce3 b43e 0056 6ebc 6c29 7f3e 2c02 f13d
000000e0: 5b2c 633d 5ae2 193e 0b65 85bd 04aa 8b3d
000000f0: 7d2b ab3e 3ec9 323e 9c53 cb3d 6a77 75bd
00000100: e292 e3bd d771 8b3e c43a 66be 2f43 c73d
00000110: 1441 35bd 59ee ae3e a5d6 593a 8704 f3bd
00000120: b86d 18bd 7f93 fcbc a543 783d c0f9 cc3a
00000130: 2c34 1ebe 9839 a33d 1702 0abe dd92 96be
00000140: 6d03 7ebe a0cb 5fbe 8ef2 b0bd a181 07be
00000150: 1444 24be e13f 8cbe 0600 88be 8ea1 06be
00000160: c142 40be ef54 093d d7a6 51be 2a82 2c3e
00000170: 72f9 59bc 0b66 1bbd b36a 85be c82c 813d
00000180: cbdd 2b3e d45d 273e 5ae6 183e 145f ef3d
00000190: 6165 ed3c 4b07 a93e f14a 4dbe c813 76be
000001a0: a357 993d 215c 37be 2fc9 1abe 9830 b43d
000001b0: 6273 0fbe 9ade 153e 2e4a 0ebe 14b9 a2bd
000001c0: 8618 f43d c007 aebd 90b8 a03d 954e c13e
000001d0: 9065 bdbe 3559 233e 9dca 2a3e 1548 dabc
000001e0: 4cc8 e4bb 6e54 65be 64ea 1bbe a9b8 8f3b
000001f0: 6588 1fbd 4df0 bd3d c07e 55be 352e a6be

net.2.bias f4 [8]
-0.14630644 -0.11642971 0.30843964 0.007453684 0.18197206 0.18167435 -0.037060503 -0.08688383
00000000: 5bd1 15be b372 eebd cdeb 9d3e 093e f43b
00000010: e256 3a3e d708 3a3e c1cc 17bd 26f0 b1bd

net.4.weight f4 [1, 8]
-0.47893625 0.30144 0.36896363 0.29336995 -0.40673319 -0.19628558 -0.368287 -0.20724356
00000000: 2237 f5be 5856 9a3e cde8 bc3e 9634 963e
00000010: 553f d0be 16ff 48be 1d90 bcbe a837 54be
