backend-ml/ckd_model.pt (torch, 3949 bytes, 5 tensors)

net.0.weight f4 [16, 4]
00000000: a40f d03e e9e0 a13e 3e72 82be 28b2 c1bd
00000010: b709 a33d 62ed 54be 7122 d53e 958e 563e
00000020: c2d1 a1be cacc 96bb f51d d73d 0306 053f
00000030: 3642 683d 3ef5 02bf a58d 6bbe 49d9 b23e
00000040: 0e7f c93e 15ae ac3e a583 c43e e857 0a3f
00000050: 9889 f0be 9e60 853e 87d7 e53e 7da6 60be
00000060: 1240 093f 792f 90bd c6a3 fb3d f609 a43e
00000070: b944 af3e 4d97 623e 9f20 22be 078d d03e
00000080: 6f29 863e f298 48be a41f 05bf dde8 c03e
00000090: ec62 3b3e 7e69 1d3d ef7f 673e adde c8be
000000a0: 2e50 d1be 70e7 e7be 5705 afba 31a3 b03e
000000b0: 74b3 f33e f568 a83d 0d89 23be b66c 2b3e
000000c0: 22f6 b2be 7a95 bebe f531 a0be fb70 ebbd
000000d0: ed44 983e a956 d2bd f0f2 9f3d 8dc4 96be
000000e0: 705d d63e f032 353e 80e2 0dbf 1c05 5dbe
000000f0: c1d2 35be da28 6abd bea7 c7be d981 9f3e
0.40636933 0.31616905 -0.25477785 -0.09457809 0.07960837 -0.2079368 0.4162784 0.20952828
-0.31605345 -0.0046020495 0.10503761 0.519623 0.05670377 -0.5115546 -0.23003252 0.349314
0.39354748 0.33726564 0.38381687 0.54040384 -0.46979976 0.26050276 0.44890997 -0.2193851
0.5361339 -0.07040305 0.12287097 0.3203885 0.3423212 0.22128029 -0.15832756 0.40732595
0.26203486 -0.19589594 -0.52001405 0.3767766 0.18299454 0.038430683 0.22607397 -0.39232388
-0.40881485 -0.4529376 -0.0013353032 0.34499505 0.4759785 0.08223144 -0.1597025 0.16740689
-0.3495341 -0.37223417 -0.31288114 -0.11496159 0.29740086 -0.10270435 0.078100085 -0.2944683
0.41868162 0.17695212 -0.55423737 -0.2158398 -0.17756177 -0.057167865 -0.38995165 0.31153753

net.0.bias f4 [16]
00000000: 67fa a4be a183 0abf 90b6 b13e 42a4 d03d
00000010: c535 98be 20c1 f43e 4459 c4be 61c4 66be
00000020: 9acc 85bd bc74 2f3b 159f 68be 70be ca3d
00000030: 4379 4ebe 7ab8 c4be 3545 8fbe 2817 d73e
-0.32222292 -0.541071 0.34709597 0.1018758 -0.29728523 0.47803593 -0.38349354 -0.2253585
-0.06533165 0.002677246 -0.22716935 0.09899604 -0.20163445 -0.38421994 -0.27982488 0.42009854

net.2.weight f4 [8, 16]
00000000: 4e86 763b 8465 b33d be10 073e c5e2 0e3e
00000010: 1d34 97bc 6f0d 31bc 51b9 cc3d 04c6 74be
00000020: 84bd 00bd 7dae 053e b674 bdbc 65e4 69be
00000030: bb54 0bbe cebc 383e 7b8c 59bd 0fd7 4fbe
00000040: 61cf 8e3e 4cb1 e53d ed8c a73e 34e4 663e
00000050: e83a b6bd 7ee8 8bbe f8e1 ce3d 3b98 b83e
00000060: 41c7 903e bbdd 643d 6cd2 70bd d4b7 533e
00000070: 2363 4b3e 86da ea3d a434 a5bd fc0b 3b3e
00000080: 8889 143e 48e7 5c3e fc75 483e c02a 6cbd
00000090: 2d1b 213d 8b5d 5cbd c6b5 b13e 1f24 803e
000000a0: 43fb 14be ed33 99be 786f 273e 4662 e3bc
000000b0: f545 c23c 144c 17bc 8bf7 ad3e 9ca5 913e
000000c0: f646 1f3e 7fb7 d23d 07dd 013e 7656 0a3c
000000d0: 8ac2 97be c823 973e 05bc b53d 2640 72be
000000e0: 30b2 e6bc 04bf 303e 0cea 013e fccd 46be
000000f0: 40e3 243e 972e e7bd 4315 c3bd 782b e2bd
00000100: 8ee6 463d 144d ba3d fbf5 a03c ec86 193e
00000110: d9d5 6e3e 35f0 79bd a4d7 683e 797e 873e
00000120: b643 1b3e 43a4 9fbe b477 ccba e88a aa3d
00000130: 6569 803b 39e0 013d ccb5 46bd 7cfa cd3d
00000140: 2691 bebd 8d1d 6a3d 7165 743e 7fcf d3bd
00000150: d7cd ed3d 7aeb 27be dccb bb3e c1f5 a1bd
00000160: 5bdc 9d3e 68a8 00be 7660 903e b2b6 a03e
00000170: 6131 09be 2521 cd3d a515 b03e 22c9 513e
00000180: c964 a0bd 5ddb ddbd 684b 033e 71e2 02be
00000190: f3d4 edbd fbe1 80be 094e a93d 2e4c 253e
000001a0: 05d3 cebd 0308 39be 9613 6bbd 7f01 29be
000001b0: ba3a ee3d 80fe cd3d aa3f e83d 89b3 8fbe
000001c0: dbeb 59be 2578 0a3c 2715 e23d 0626 67be
000001d0: aae7 1cbe e68e eebb 825d 7cbd c3fb 6e3d
000001e0: d7f7 06be d229 9c3e e337 163e e17b f63d
000001f0: 2922 e63d 7564 ab3e 65a2 20be aa8e 7cbe
0.0037616673 0.08759597 0.1318998 0.13953693 -0.018457467 -0.0108064255 0.09996284 -0.23903662
-0.031430736 0.13054843 -0.023126941 -0.22841032 -0.13606541 0.18040773 -0.05311249 -0.20296882
0.27892593 0.11215457 0.32724705 0.2254799 -0.08897954 -0.27325815 0.10101694 0.36053643
0.2827702 0.05587552 -0.058794424 0.20675594 0.19862036 0.11467461 -0.08066681 0.1826629
0.14505589 0.21572602 0.19576257 -0.057657957 0.039332557 -0.053800147 0.34708995 0.25027558
-0.14548974 -0.2992243 0.16351116 -0.027756821 0.023714999 -0.009234447 0.33977923 0.28446662
0.15554413 0.10288905 0.12681971 0.008443465 -0.2964061 0.29519486 0.088737525 -0.23657283
-0.028161138 0.17260367 0.12686938 -0.19414514 0.16102314 -0.11288183 -0.0952554 -0.11043447
0.048559718 0.09096733 0.019648543 0.14992875 0.23323764 -0.061020095 0.2273851 0.26463678
0.15162548 -0.3118001 -0.0015599639 0.083272755 0.003918814 0.031707976 -0.04851322 0.10057542
-0.093050286 0.057157088 0.23866822 -0.10342311 0.116115265 -0.16398421 0.3667897 -0.07908202
0.3083218 -0.12564242 0.28198594 0.31389385 -0.13397743 0.100160874 0.34391513 0.20486882
-0.07831723 -0.10832856 0.12821734 -0.12781693 -0.116128825 -0.2517241 0.08266837 0.16142341
-0.100988425 -0.18069462 -0.057391725 -0.16504477 0.11632295 0.10058308 0.11340268 -0.28066662
-0.21281378 0.008451496 0.11039191 -0.22573099 -0.15322748 -0.0072802184 -0.061612613 0.058345567
-0.13180481 0.30500656 0.14669757 0.12035347 0.11236984 0.3347508 -0.15686949 -0.24663797

net.2.bias f4 [8]
00000000: e4ce 6a3e 10ba ea3d dcf4 243e 9f0d 853e
00000010: 6e36 f73d 4ef5 a73d 7ff3 d43d c7ea 8b3e
0.22930485 0.1146127 0.16109031 0.25986955 0.120709285 0.08201085 0.10398006 0.27327558

net.4.weight f4 [1, 8]
00000000: 516f b4be 15ef 8f3e e12c cb3e 56b0 c6be
00000010: 4cd8 863e 67c7 803e 9128 3e3e e414 4dbe
-0.35241178 0.28112093 0.39682677 -0.3880641 0.26336896 0.25152132 0.18570162 -0.200275
